nohup: ignoring input
layer     filters    size              input                output
    0 conv     16  3 x 3 / 1   256 x 256 x   3   ->   256 x 256 x  16
    1 max          2 x 2 / 2   256 x 256 x  16   ->   128 x 128 x  16
    2 conv     32  3 x 3 / 1   128 x 128 x  16   ->   128 x 128 x  32
    3 max          2 x 2 / 2   128 x 128 x  32   ->    64 x  64 x  32
    4 conv     64  3 x 3 / 1    64 x  64 x  32   ->    64 x  64 x  64
    5 max          2 x 2 / 2    64 x  64 x  64   ->    32 x  32 x  64
    6 conv    128  3 x 3 / 1    32 x  32 x  64   ->    32 x  32 x 128
    7 max          2 x 2 / 2    32 x  32 x 128   ->    16 x  16 x 128
    8 conv    256  3 x 3 / 1    16 x  16 x 128   ->    16 x  16 x 256
    9 max          2 x 2 / 2    16 x  16 x 256   ->     8 x   8 x 256
   10 conv    512  3 x 3 / 1     8 x   8 x 256   ->     8 x   8 x 512
   11 conv   1024  3 x 3 / 1     8 x   8 x 512   ->     8 x   8 x1024
   12 conv   1024  3 x 3 / 1     8 x   8 x1024   ->     8 x   8 x1024
   13 conv     30  1 x 1 / 1     8 x   8 x1024   ->     8 x   8 x  30
   14 detection
1
model-v1
Learning Rate: 0.001, Momentum: 0.9, Decay: 0.0005
Loaded: 3.090000 seconds
Region Avg IOU: 0.122238, Class: 1.000000, Obj: 0.464805, No Obj: 0.455680, Avg Recall: 0.000000,  count: 90
noobject_loss: 15576.858398, coord_loss: 7734.544922, object_loss: 155.108383
1: 1961.187500, 1961.187500 avg, 0.001000 rate, 0.360000 seconds, 128 images
…
