nohup: ignoring input
layer     filters    size              input                output
    0 conv     16  3 x 3 / 1   448 x 448 x   3   ->   448 x 448 x  16
    1 max          2 x 2 / 2   448 x 448 x  16   ->   224 x 224 x  16
    2 conv     32  3 x 3 / 1   224 x 224 x  16   ->   224 x 224 x  32
    3 max          2 x 2 / 2   224 x 224 x  32   ->   112 x 112 x  32
    4 conv     64  3 x 3 / 1   112 x 112 x  32   ->   112 x 112 x  64
    5 max          2 x 2 / 2   112 x 112 x  64   ->    56 x  56 x  64
    6 conv    128  3 x 3 / 1    56 x  56 x  64   ->    56 x  56 x 128
    7 max          2 x 2 / 2    56 x  56 x 128   ->    28 x  28 x 128
    8 conv    256  3 x 3 / 1    28 x  28 x 128   ->    28 x  28 x 256
    9 max          2 x 2 / 2    28 x  28 x 256   ->    14 x  14 x 256
   10 conv    512  3 x 3 / 1    14 x  14 x 256   ->    14 x  14 x 512
   11 max          2 x 2 / 2    14 x  14 x 512   ->     7 x   7 x 512
   12 conv   1024  3 x 3 / 1     7 x   7 x 512   ->     7 x   7 x1024
   13 conv   1024  3 x 3 / 1     7 x   7 x1024   ->     7 x   7 x1024
   14 conv     30  1 x 1 / 1     7 x   7 x1024   ->     7 x   7 x  30
   15 detection
Loading weights from backup/table-v4/model-v4_20000.weights...3
model-v4
Done!
Learning Rate: 0.001, Momentum: 0.9, Decay: 0.0005
n_batch: 20000
i = 0
Loaded: 3.140000 seconds
Region Avg IOU: 0.857534, Class: 1.000000, Obj: 0.959246, No Obj: 0.006877, Avg Recall: 0.973684,  count: 38
i = 1
Loaded: 0.880000 seconds
Region Avg IOU: 0.820865, Class: 1.000000, Obj: 0.846656, No Obj: 0.006480, Avg Recall: 0.944444,  count: 36
…
