nohup: ignoring input
layer     filters    size              input                output
    0 conv     16  3 x 3 / 1   448 x 448 x   3   ->   448 x 448 x  16
    1 max          2 x 2 / 2   448 x 448 x  16   ->   224 x 224 x  16
    2 conv     32  3 x 3 / 1   224 x 224 x  16   ->   224 x 224 x  32
    3 max          2 x 2 / 2   224 x 224 x  32   ->   112 x 112 x  32
    4 conv     64  3 x 3 / 1   112 x 112 x  32   ->   112 x 112 x  64
    5 max          2 x 2 / 2   112 x 112 x  64   ->    56 x  56 x  64
    6 conv    128  3 x 3 / 1    56 x  56 x  64   ->    56 x  56 x 128
    7 max          2 x 2 / 2    56 x  56 x 128   ->    28 x  28 x 128
    8 conv    256  3 x 3 / 1    28 x  28 x 128   ->    28 x  28 x 256
    9 max          2 x 2 / 2    28 x  28 x 256   ->    14 x  14 x 256
   10 conv    512  3 x 3 / 1    14 x  14 x 256   ->    14 x  14 x 512
   11 max          2 x 2 / 2    14 x  14 x 512   ->     7 x   7 x 512
   12 conv   1024  3 x 3 / 1     7 x   7 x 512   ->     7 x   7 x1024
   13 conv   1024  3 x 3 / 1     7 x   7 x1024   ->     7 x   7 x1024
   14 conv     30  1 x 1 / 1     7 x   7 x1024   ->     7 x   7 x  30
   15 detection
Loading weights from backup/table-v2/model-v2_90000.weights...3
model-v2
Done!
Learning Rate: 0.001, Momentum: 0.9, Decay: 0.0005
n_batch: 90000
i = 0
Loaded: 2.610000 seconds
Region Avg IOU: 0.844771, Class: 1.000000, Obj: 0.934712, No Obj: 0.006411, Avg Recall: 1.000000,  count: 48
i = 1
Loaded: 0.490000 seconds
Region Avg IOU: 0.785518, Class: 1.000000, Obj: 0.968234, No Obj: 0.006220, Avg Recall: 0.875000,  count: 56
…
